Language Model/cbow_model/cbow_model.pt (torch, 145641 bytes, 3 tensors)

embeddings.weight f4 [179, 100]
000000 a8 d6 0c 40 c0 af 1c 3f 82 0e 70 bf 0e 59 4b bf
       2.2006016 0.61205673 -0.9377214 -0.7943276
000010 20 ea 39 3f e8 0c 6a bf 70 b6 b0 be 98 9e bb 3f
       0.7262287 -0.91425943 -0.3451419 1.4657774
000020 3c f0 68 3f 75 e9 00 3f f2 c5 1c bf 59 82 20 bf
       0.9099157 0.5035623 -0.6123954 -0.62698895
000030 34 6f db be 45 b9 63 3f a7 72 99 be 72 7d d6 3e
       -0.4285828 0.88954574 -0.29970285 0.41892582
000040 aa 4e 32 3f 99 8e 2d 3f e0 94 17 3f 1a e1 be ba
       0.6965128 0.6779571 0.5921154 -0.0014562935
000050 19 74 ad be a4 ac b0 be 04 bb 50 bf a0 2b bc be
       -0.33877638 -0.34506714 -0.81535363 -0.36752033
000060 e5 10 3d 3f 65 d7 34 3e 73 2c 45 3d 56 11 b5 bf
       0.73853904 0.17660291 0.048138093 -1.4145916
000070 3d 8d 09 bf d8 9e c9 be a2 e9 02 40 f7 5d a6 3e
       -0.5373114 -0.39379 2.0455098 0.32493564
000080 58 7f ff bd d2 5e e7 3f 65 aa 82 bf 40 b6 d7 bd
       -0.12475461 1.8075812 -1.020825 -0.10532808
000090 94 d1 90 3e 78 d8 94 3d 2b 91 ea 3e 4a 4f 2c bf
       0.28284895 0.07267851 0.4581388 -0.67308486
0000a0 c0 a3 dd bc 38 07 a4 be 58 8c 61 3d d6 c1 6a bf
       -0.027055621 -0.32036757 0.055065483 -0.9170202
0000b0 07 0c 47 bf 9f 7a 47 3f 8d fc 1f 3f 9e 77 3a bf
       -0.7775273 0.7792148 0.62494737 -0.7283877
0000c0 77 d9 2e be 99 ea d9 3f c6 67 2a c0 aa 87 74 bf
       -0.17075144 1.7024719 -2.6625838 -0.95519507
0000d0 27 10 94 be 48 eb 4f bf a7 bb 2b 3f fd fe af be
       -0.28918573 -0.81218386 0.6708321 -0.34374228
0000e0 2c b1 79 bf b3 2c 94 3e f8 9c 36 3f 4b 32 6b bf
       -0.9753597 0.28940353 0.71333265 -0.91873616
0000f0 b9 65 76 3f 8c 9c 59 bf 33 79 f2 3e 1a 97 58 3f
       0.96248966 -0.85004497 0.47358093 0.8460556
000100 c2 cd 16 bf 3d 7c e5 bf 36 f9 22 bf 63 13 92 3f
       -0.5890771 -1.792854 -0.63661516 1.1412166
000110 5c f6 bf be 3f 24 98 be c4 23 90 3f 28 ff 58 3e
       -0.37492645 -0.29715154 1.1260915 0.21191084
000120 6f a5 db 3f 17 46 51 be 16 c7 93 3e f6 0b ef bf
       1.7159861 -0.20436893 0.28862828 -1.8675525
000130 ec 9e 40 bf 62 ec 92 be 2f c5 1b be 96 28 3a be
       -0.75242496 -0.2869597 -0.15211938 -0.18179545
000140 8e 21 a5 3f 8b f3 47 3f c6 d9 2a be 39 be 81 3f
       1.2900865 0.7810599 -0.16684636 1.0136176
000150 da 3f 4a 3f 6a bb 89 3f c3 e4 9e 3f 11 34 13 3f
       0.7900368 1.0760319 1.2413563 0.5750132
000160 00 15 6b bf 58 29 d7 3e 44 90 cd 3d 80 7e 56 bf
       -0.9182892 0.4202373 0.10037282 -0.83786774
000170 c7 c5 2a 3f 32 d9 6b 3f 5e f8 fd 3d 75 01 3e 3d
       0.66708034 0.9212829 0.12400888 0.04638811
000180 38 c7 d5 be b1 1a 8e bf 55 af bd 3e 56 6b 59 bf
       -0.41753554 -1.1101896 0.3704783 -0.84929407
000190 29 7b 92 3f 57 48 b7 bf c8 4f cc bf a8 84 7e 3f
       1.1443835 -1.4318951 -1.5961847 0.9942117
0001a0 38 6a e2 bf cd 17 83 3f 4a 2b 2e bf d8 86 87 3f
       -1.7688665 1.0241638 -0.68034804 1.0588026
0001b0 e1 af b5 be 1b f8 b7 3d 2b 31 e4 be ca 96 1d bf
       -0.35485747 0.08982869 -0.44568762 -0.6155821
0001c0 f4 06 f8 3f dc c7 4d bf d2 ac 24 3f 6e f7 d7 be
       1.9377122 -0.80383086 0.643262 -0.4218096
0001d0 49 72 78 3f c9 51 33 be dd 6e cb 3f d6 ce 5a bf
       0.97049385 -0.17511667 1.5893208 -0.85471857
0001e0 bc af 1d 3d 17 1a 7e bf 30 b3 da bf 13 86 81 bf
       0.03849767 -0.9925856 -1.7085934 -1.0119041
0001f0 6d 2b 3a c0 4c 38 af 3f 7d 9d a7 be 74 17 5d 3f
       -2.9089005 1.3689055 -0.32737342 0.8636391
000200 06 ca 0f 3f d8 3d 87 bf 47 15 e6 be ca 54 d9 3e
       0.5616764 -1.0565748 -0.44938108 0.424475
000210 ce fe cf be f8 6c 7e 3f 97 13 81 3f 2f fd b1 3e
       -0.40624088 0.99385023 1.0084103 0.34763476
000220 b2 53 cf 3f 6d 74 a2 3f 11 ec 46 bd 99 c9 50 3e
       1.6197417 1.269178 -0.048564974 0.20389403
000230 db 0d a5 3f 6d b4 6f bf 16 21 dd be 10 c2 e6 bf
       1.2894853 -0.9363468 -0.43189305 -1.8027973
000240 45 46 9b bf 9e 5a f0 bf ba 38 57 3f 36 44 e9 3f
       -1.213082 -1.8777654 0.8407093 1.8223941
000250 a7 ec 44 3d 20 f8 3c 40 fe 70 8e 3e 05 f8 eb 3e
       0.04807725 2.9526443 0.2782058 0.4608766
000260 c5 0c e8 be c2 71 c9 3f 0b 41 84 bf 7b 65 96 3f
       -0.45322242 1.5737841 -1.033235 1.1749719
000270 c6 bd dd be 4a 07 d7 3d 04 53 39 3e fe 1d 8c bf
       -0.43308848 0.10499437 0.18098074 -1.0946653
000280 a3 90 0b bf 8c 21 96 3f b9 f2 ac bf 28 7d 27 3f
       -0.54517573 1.1728988 -1.3511573 0.6542535
000290 07 4b 85 3e 52 c1 4d bf fd 14 b8 be 7c 3b 3f bf
       0.26033804 -0.8037311 -0.35953513 -0.7470014
0002a0 e4 9e 65 3e 27 42 93 bf 06 1d 86 bf f2 db ca bf
       0.22423893 -1.1504563 -1.0477607 -1.5848372
0002b0 49 99 fa 3e 22 c1 6f 3f 0b 13 66 bf 35 95 66 3f
       0.48945072 0.9365407 -0.8987281 0.9007142
0002c0 54 f8 2b 3f f7 dc 09 3f 80 d6 c6 bf b9 03 b6 be
       0.67175794 0.5385279 -1.553421 -0.35549715
0002d0 10 59 0a 40 9a 88 15 bd c1 5a 56 be 1f d0 e2 3f
       2.161686 -0.036507227 -0.20933057 1.7719764
0002e0 19 cd 1a be 26 77 28 3f 51 7b ae be e6 28 77 3f
       -0.15117301 0.65806806 -0.34078458 0.9654678
0002f0 ae 5b 55 bf dc 96 bd 3f b1 02 26 be 44 05 44 bf
       -0.8334302 1.4811664 -0.16211964 -0.76570535
000300 c5 09 20 3f b5 d6 b6 be 6b 93 3d be 94 91 82 bf
       0.6251491 -0.35710683 -0.18513267 -1.0200677
000310 e7 76 9f 3e d1 95 e4 be ff 8c 1a bf e4 ce c6 bf
       0.31145403 -0.4464555 -0.6037139 -1.5531888
000320 e1 87 38 3e c3 8d 2c bf 0f b5 2e bf ab 27 be 3f
       0.18020584 -0.6740381 -0.68245023 1.4855856
000330 e7 f7 2e bf f4 96 b6 3e c2 e3 29 3f 66 e5 83 3f
       -0.6834702 0.35662043 0.66363156 1.0304382
000340 3c d3 69 3f 70 b9 98 bf 95 cd ce 3d 4b 54 13 40
       0.91337943 -1.1931591 0.100978054 2.3020198
000350 90 fc 9a 3f 23 35 ba bd 79 95 9b bf 60 5d 5c bf
       1.2108326 -0.09092166 -1.215499 -0.8607998
000360 83 f7 97 3e 01 e9 a8 be 66 0c 53 3f 2c 54 52 3e
       0.29681024 -0.32990268 0.82440794 0.20539922
000370 cf 3b 35 3f 91 27 89 3f 5a d8 7f 3f a2 e9 f3 3f
       0.70794386 1.07152 0.999395 1.9055674
000380 0c 8c df be ea fa a6 3f ad 66 84 3f 44 25 99 be
       -0.43661535 1.3045323 1.0343834 -0.29911244
000390 aa 2d 40 3f 7b f5 03 be 3d ee 05 40 ca 44 90 bd
       0.7506968 -0.12886612 2.092666 -0.070443705
0003a0 ec f0 b0 be 2c 16 84 3f d1 7a 84 3f 08 9d a3 3f
       -0.3455881 1.0319266 1.034998 1.2782297
0003b0 90 12 ac 3e 5b 1f a3 3e 0e 71 a3 3d 70 4b 9b be
       0.33607912 0.3185986 0.07980548 -0.30330992
0003c0 ce 11 04 be be 95 ec 3f 00 e4 0f bf 55 56 03 be
       -0.12897417 1.8483198 -0.56207275 -0.12825902
0003d0 cb 77 41 be 9a 4e 79 bf b0 ea 09 40 89 31 46 bf
       -0.18893354 -0.9738556 2.1549492 -0.77419335
0003e0 d8 08 b7 bf 83 43 e3 3f 53 11 e1 be 7a 7f bf 3e
       -1.4299574 1.7754978 -0.4395853 0.37401944
0003f0 9e 97 56 be df ff ca be 05 e3 9f bd 2c 9a ee bf
       -0.20956275 -0.3964834 -0.078069724 -1.86408

linear.weight f4 [179, 100]
000000 24 b2 a3 3d 51 06 86 bd 26 5b 8e 3d 95 72 16 3e
       0.07992962 -0.065441735 0.06950979 0.14692147
000010 a2 81 0e be d3 03 a0 bd b8 51 16 bd 99 41 2a 3e
       -0.13916638 -0.078132294 -0.036699027 0.16626586
000020 3e 13 d1 3c 7f a5 9d 3d 59 99 2c 3e cb 6b e5 bd
       0.02552187 0.076975815 0.16855372 -0.112022005
000030 3c 08 2e 3e be ff 56 bd e3 54 90 3d ef bc 8d bc
       0.16995329 -0.05248999 0.07047441 -0.017302005
000040 c2 32 81 bb fd f3 d8 3d 7a 0b a4 bd 5e 18 c6 3d
       -0.0039428184 0.10593412 -0.080100015 0.096726164
000050 36 45 31 be 6b ee 12 be ac 8f 11 be 82 e3 be bd
       -0.17311558 -0.14348762 -0.14214963 -0.093207374
000060 9e 2a 77 bd e5 80 88 bd 62 db 3a 3e 7e c9 02 bc
       -0.060343377 -0.0666521 0.1824775 -0.00798261
000070 b9 b0 17 3e 72 cf dc 3c cf e2 86 3d b2 76 8b 3d
       0.14813508 0.026954386 0.06586229 0.06809749
000080 08 7a 50 3d b9 05 2f be ff aa 00 3b 85 2d bc bd
       0.050897628 -0.17092027 0.0019633172 -0.0918837
000090 81 08 0b 3e c9 89 db 3d 8c f6 71 bd 3e ed 1d 3d
       0.13577463 0.1071964 -0.059073016 0.03855633
0000a0 08 b6 2c 3e f5 2a d2 3d 80 20 f0 bd 9f 74 7b 3b
       0.16866314 0.102621 -0.11724949 0.0038369072
0000b0 8e b6 9c bd af 94 09 3e 41 d1 ac 3d af 63 30 bd
       -0.07652007 0.13435625 0.084383495 -0.043063816
0000c0 ec 48 be bb 00 cc ab bd dd 7e 16 3e d1 69 14 be
       -0.005807033 -0.08388519 0.14696832 -0.14493491
0000d0 05 50 cd 3d 03 4e b0 bc c9 6f b9 bd a5 62 6e 3d
       0.10025028 -0.021521574 -0.090545245 0.058199544
0000e0 86 9e 8a 3b 43 e6 de bc 4a 81 37 3e d8 f4 d6 3d
       0.0042303232 -0.027209407 0.17920414 0.10495919
0000f0 b9 53 04 3e 58 94 bf 3d b6 d8 ad 3d c1 d8 9d bd
       0.12922563 0.09354466 0.084886 -0.07707358
000100 80 56 c7 bd 7f 0c 9d 3d df b0 3c bd 9e 17 62 3d
       -0.097332954 0.07668399 -0.046067115 0.055198304
000110 56 dc 05 3d 54 4a 29 3d cd 50 1f 3e f3 e9 24 be
       0.03268083 0.04133065 0.15558167 -0.1610487
000120 e9 0b d5 3d 1d b6 f4 3d a6 4f b1 3c ac 3d 74 3d
       0.10402662 0.11948798 0.021644425 0.059629127
000130 54 c6 4e bc 96 da fc 3b 42 3b 1a 3d 4d 1e 33 3d
       -0.012620527 0.007716487 0.03765417 0.04373007
000140 ab 87 08 3e c0 89 95 3d a7 60 2e be df 70 ac 3c
       0.13333003 0.07301664 -0.17029057 0.021049915
000150 57 85 fd bb b6 48 95 3a 36 f6 13 3c 50 64 eb 3d
       -0.0077368426 0.0011389467 0.009030869 0.114937425
000160 6d 66 84 bc 2e 73 45 3c d9 73 a7 3d 96 61 c1 3c
       -0.016162122 0.012051387 0.08176393 0.023606103
000170 ef 37 1e 3e 52 95 1a 3e 84 6a a9 bc 0a b5 80 bc
       0.15451024 0.15096024 -0.020680673 -0.015711326
000180 4f e3 38 bc e8 b7 70 bd fe ee 03 be 89 f2 c9 3d
       -0.011284663 -0.058769137 -0.12884137 0.09860713
000190 06 b1 14 3e 0e ee d1 bd 47 65 e6 3d d0 31 82 3d
       0.14520654 -0.102504835 0.11249786 0.06357157
0001a0 1f 40 e5 bd c9 a1 d7 3b e5 6e e6 bb 52 80 98 3d
       -0.11193871 0.0065805656 -0.0070322626 0.0744635
0001b0 dd be 70 3d 20 00 1e 3e 7c 36 de 3d eb b2 63 3b
       0.05877577 0.15429735 0.10850236 0.0034744095
0001c0 53 c0 e4 3c 84 d2 d7 bd 77 6d 89 3d 67 41 ee bb
       0.027923739 -0.105381995 0.06710332 -0.00727098
0001d0 c0 ac 53 bb 48 0d 0f 3d 12 24 df bd 5d 6c 3b bd
       -0.0032299012 0.034924775 -0.10895552 -0.04575764
0001e0 0f bb 00 be 1d 74 d7 bc 96 7e 71 bc 94 f4 15 be
       -0.12571357 -0.026300484 -0.014739653 -0.1464408
0001f0 a2 43 d4 bd b3 fa a7 bd f1 e8 67 3d 2c bb 5b bd
       -0.103644624 -0.08202114 0.056618635 -0.053645298
000200 e4 75 df 3d da 87 2f 3c e5 ed 0a 3e ad a6 b0 3d
       0.10911158 0.010713542 0.13567312 0.08625541
000210 b9 98 f5 3d 33 26 31 be 8e 0c 24 bd 5b dc cd bd
       0.1199202 -0.17299728 -0.040051036 -0.10051795
000220 7e de 59 3d 89 4b b8 3d 52 88 94 bc e1 f8 40 3c
       0.0531907 0.08998782 -0.018131409 0.011778087
000230 b7 d1 2e 3c 9b 6e 32 3e 19 62 e8 3d a0 20 c9 3d
       0.010670117 0.17425005 0.11346836 0.09820676
000240 3a 7c 4b bc 40 60 f9 3d a0 87 e3 3d 1d 4e 27 be
       -0.012419755 0.12176561 0.11109853 -0.16338392
000250 eb d3 2f 3d 48 5a 16 3d f6 02 7c bc ea 86 35 be
       0.04292671 0.036707193 -0.015381565 -0.17727247
000260 d9 31 88 3d 11 da 9b bd 92 d0 72 bd 8a 4c 79 3c
       0.06650133 -0.07609952 -0.05928094 0.015216002
000270 08 fa 03 3e e3 a3 07 be 7c d3 00 3d 2e e0 00 3e
       0.12888348 -0.13246112 0.031451687 0.12585518
000280 f2 6d 04 3e 27 e8 fa 3d 42 b0 66 3d 39 6d 27 bd
       0.12932566 0.12251311 0.056320436 -0.040875647
000290 af 33 25 3c cd 44 36 3e 7f 8b c1 bd 67 a2 20 3d
       0.010083123 0.17799683 -0.09450435 0.03921738
0002a0 32 ea f0 3d 84 b8 fa bb 64 35 9d 3a f2 64 2c bd
       0.11763419 -0.0076513905 0.0011994061 -0.042088456
0002b0 80 6f 28 3e 87 8c 16 3e 8b ec 14 3e 45 db 3b 3c
       0.16448784 0.14702044 0.14543359 0.011465852
0002c0 39 87 f8 bd 82 9b c3 bd 9f e2 36 3e 30 78 1a 3d
       -0.12135167 -0.09551145 0.17859887 0.037712276
0002d0 48 bb ed 3d 41 46 2a 3e 44 23 05 be 7c 5a 95 3d
       0.11607987 0.16628362 -0.13001734 0.07292649
0002e0 d8 60 23 be a2 21 e0 bb a1 26 25 be c1 59 bc 3d
       -0.15954912 -0.006839947 -0.16128017 0.09196807
0002f0 b3 63 aa 3d 02 19 df 3b 56 30 b4 3d f1 73 16 3e
       0.08319797 0.006808401 0.08798282 0.14692666
000300 56 7d 12 bc 8b 49 28 3e e2 34 01 3d 18 1c 04 be
       -0.008941015 0.16434304 0.031544574 -0.12901342
000310 ec 2b f5 bd e4 7c 39 bd af cb d0 bd af b0 85 3d
       -0.11971268 -0.04528512 -0.101950996 0.0652784
000320 4c df 42 3d 8c 4f 50 3c 4a dd 8e ba d8 d1 8e 3d
       0.047576234 0.012714278 -0.001089969 0.06973618
000330 2b 5e 24 bd da 97 12 be 31 30 3b be cb aa 96 bc
       -0.040128868 -0.1431574 -0.18280102 -0.018391987
000340 f6 13 f5 3d cb b9 1b 3e 0c 90 e5 3d 90 29 16 bd
       0.11966698 0.15207593 0.112091154 -0.03666073
000350 81 77 5f 3a 07 46 9d bc 7a 5e 09 3e 5c 96 c4 bd
       0.00085245824 -0.01919843 0.13414946 -0.09598991
000360 c9 af 34 be c5 eb 00 bc fb f6 31 be 8f 50 74 bd
       -0.17645182 -0.007868712 -0.17379372 -0.05964714
000370 54 c9 c8 bd d0 27 7f bb 4e 74 31 3c 8d 36 0b be
       -0.09804025 -0.0038933642 0.010830952 -0.13595028
000380 e1 ba ce bd 88 16 8a 3c bb 0a 18 3e a1 05 92 bd
       -0.10094238 0.016856447 0.14847843 -0.0712998
000390 57 1a 29 3e 34 47 4e bd 2e 34 b9 ba 8a 4e 30 3d
       0.16513954 -0.050360873 -0.0014129931 0.04304365
0003a0 8f 49 07 bc f4 bd 08 be 4f 74 17 bb 51 be 6b bd
       -0.008257284 -0.13353711 -0.0023110097 -0.057554547
0003b0 10 57 59 ba f8 a8 f4 3c f1 ca 7a 3d 85 88 d5 3d
       -0.00082908664 0.029865727 0.061228696 0.1042643
0003c0 f2 f4 9f 3d e2 83 01 3e 1f 93 f9 3c 66 92 2a 3e
       0.078103915 0.12647966 0.03046566 0.16657409
0003d0 dc ca 53 bd 91 50 3d 3e 56 24 e3 3d ef 5d cf bd
       -0.051707134 0.18487765 0.11090915 -0.10125338
0003e0 e3 23 d2 bd eb 89 55 3d c5 a5 0f 3e f2 13 4b bd
       -0.10260751 0.052133482 0.1402808 -0.04957957
0003f0 ce 7c cd 3d e7 d0 8b bd b1 da 63 bd 31 d4 81 3d
       0.1003357 -0.06826954 -0.055628482 0.063393004

linear.bias f4 [179]
000000 fa 5a 04 be 98 69 a5 bd 91 a8 05 be e9 f2 02 be
       -0.1292533 -0.08076781 -0.13052584 -0.12787975
000010 f9 21 d8 bd 5b e9 fb bd fb b1 04 be 74 60 a2 bd
       -0.10553355 -0.123003684 -0.12958519 -0.07928553
000020 63 34 e5 bd 2c f3 12 be 57 59 e7 bd 95 8c 30 3d
       -0.111916326 -0.14350575 -0.11296337 0.04310282
000030 20 87 2c 3c dc 86 ab bd 87 dc 1a be db 18 0f bc
       0.010530263 -0.08375332 -0.15123187 -0.008733953
000040 ba b9 63 bc ca 04 3a bc c8 cd fd 3b 9a 8d 42 bd
       -0.013899261 -0.011353681 0.0077454783 -0.047498323
000050 28 9f bc bd b1 b7 ab bc 84 98 00 bd 9a 1a f6 bd
       -0.09210044 -0.020961614 -0.03139545 -0.120167926
000060 9f ce 0c be 3a 48 1e be a7 df 15 be 44 85 db bd
       -0.13750695 -0.1545724 -0.14636098 -0.10718778
000070 20 d2 c0 bd 9a 46 22 bd e7 48 b2 bd df c9 1a be
       -0.09415078 -0.039618112 -0.08705311 -0.1511607
000080 6d e4 18 be e4 e0 15 be 89 d0 ae bd 74 e7 ec bd
       -0.14930888 -0.1463657 -0.08535869 -0.11567584
000090 39 37 88 bd 34 66 32 be 88 5f eb bc c0 13 03 bd
       -0.06651158 -0.174218 -0.028732076 -0.032001257
0000a0 85 71 94 bd 10 b3 2c be 74 17 e3 bc a5 70 12 be
       -0.07248215 -0.16865182 -0.027721144 -0.14300783
0000b0 f7 83 3f 3c 35 c4 22 bd 6f db 5e 3c 5b 05 05 be
       0.011689178 -0.0397379 0.013602122 -0.12990324
0000c0 42 3e 18 3b f0 fb a9 bd ca 7d b7 bb 4d f6 79 bd
       0.0023230468 -0.083000064 -0.005599712 -0.061025906
0000d0 5a 80 92 bd a2 02 93 bd aa f1 05 3e 68 ce 9b bd
       -0.07153387 -0.071782365 0.13080469 -0.07607728
0000e0 49 c0 07 3b f2 30 67 bd 37 99 2c 3e c7 95 32 bd
       0.0020713976 -0.056443162 0.16855322 -0.04359987
0000f0 90 0c 14 be d7 a1 87 bc 55 f7 eb 3a 5e dc 20 be
       -0.14457917 -0.016556663 0.0018002788 -0.15709063
000100 b6 4b 21 be 91 3e de bd f6 5d 4c bd 49 6b ff bd
       -0.15751538 -0.10851777 -0.049894296 -0.12471635
000110 3f 44 32 bc 3f 58 b3 bd a4 84 06 be a5 31 3a 3c
       -0.010880529 -0.08757066 -0.13136536 0.011364375
000120 42 0e 08 be 7b 0f 63 bd 0b c9 03 bd a3 12 c2 bd
       -0.13286689 -0.055434685 -0.03217415 -0.09476211
000130 9e 87 d9 3d 41 c6 81 bd 98 3a e7 bc fe 15 17 bc
       0.1062157 -0.06336642 -0.028226182 -0.009221552
000140 1c 2a 2d be 57 87 ae bd 27 47 b5 bd 05 1b b1 bc
       -0.16910595 -0.08521908 -0.08851462 -0.02161933
000150 a8 1f 78 bd 16 56 30 be d5 c0 46 bd 80 af ae 3d
       -0.060577065 -0.17220339 -0.048523743 0.08529568
000160 19 06 8c bd 05 7d 26 be 65 37 f5 bd 41 4d 71 bd
       -0.068371005 -0.16258629 -0.11973456 -0.058911566
000170 2d d8 2f be 87 b2 2e bd f6 36 07 bd 64 37 5c bd
       -0.17172308 -0.042650726 -0.0330114 -0.053763762
000180 5e f9 29 be ca ae 30 be 2e c7 9f bd 4e b5 19 3c
       -0.16599032 -0.17254177 -0.078016624 0.009381605
000190 ba 12 6f 3c de 00 83 3d fe b6 b7 bc 56 76 36 bd
       0.014591867 0.0639665 -0.022426125 -0.044546448
0001a0 77 59 85 bc 4d 74 06 be 66 7e 7d bd 24 c1 9a bd
       -0.016278012 -0.13130303 -0.06188812 -0.0755637
0001b0 4f 21 35 be ee 77 08 be 03 4e 04 be 73 09 98 3d
       -0.17688487 -0.13327 -0.12920384 0.07423677
0001c0 cb f2 b2 bd 1f 97 f5 bd a1 21 95 3c f0 cb 2c be
       -0.08737715 -0.11991715 0.018204512 -0.16874671
0001d0 19 1b 2f be 30 62 d3 bd 04 20 61 bd 7c fe 35 be
       -0.1710018 -0.10321462 -0.054962173 -0.1777286
0001e0 0a 6a 22 3d 27 05 2b 3e e1 68 0a bd 2c e2 99 3b
       0.039651908 0.16701184 -0.033791427 0.0046961512
0001f0 c3 03 07 3e 17 60 0a bc 27 8f ab bd 67 ea 73 3c
       0.13185029 -0.008445761 -0.083769135 0.014887429
000200 a0 3d 69 bd 6f 6f d4 bd 51 06 67 bd 0c 2a a0 bd
       -0.056943536 -0.10372817 -0.05640251 -0.0782052
000210 19 14 f8 bd 07 a6 d2 3d f6 8d ef bd aa 3c 50 bd
       -0.12113208 0.102855735 -0.11696999 -0.050839104
000220 55 f0 a7 bd 26 08 16 bd 4a a1 46 bc 67 e0 c2 bd
       -0.082001366 -0.036628865 -0.012123415 -0.095154576
000230 e0 19 47 bd ec 30 d1 3c 99 1f 92 bd 80 0c 85 bc
       -0.04860866 0.025536023 -0.07134933 -0.016241312
000240 29 2c f2 bc df 73 1e be 24 66 20 be 35 7e 68 bd
       -0.029562073 -0.15473889 -0.15663964 -0.056760985
000250 70 5b 5c 39 f7 94 3a 3c df a3 a0 bd 20 dc 57 3c
       0.00021014898 0.011388055 -0.07843756 0.0131750405
000260 78 e9 1f be 2e 66 e4 bd 26 c0 6b 3c 0a 83 10 ba
       -0.15616405 -0.11152302 0.0143890735 -0.00055126904
000270 f4 e6 16 3e 75 eb 03 bd 0b 3d 82 bd 89 b4 9a bc
       0.14736539 -0.03220697 -0.06359299 -0.018884914
000280 30 17 9d bd 4b 70 b0 bd 61 37 34 be 91 13 bc bd
       -0.07670438 -0.08615168 -0.1759925 -0.091834195
000290 8c 2e e3 3b 3e b4 2c be 62 a1 a6 bd 2c 56 dc bd
       0.006933039 -0.16865632 -0.0813625 -0.107586235
0002a0 12 a1 2e be 38 a8 1c bc 5d 86 03 be 02 6f a5 bd
       -0.17053631 -0.009561591 -0.12844224 -0.08077814
0002b0 7b 86 0a be b0 f5 84 bd 23 34 b5 bd 91 79 15 3e
       -0.13527863 -0.06492174 -0.08847835 0.14597155
0002c0 e7 17 bb bd e2 cc b1 bc 5c 67 d1 bd
       -0.091354184 -0.021704141 -0.10224792
